CNN_model_ece228-Copy1.pt (torch_old, 412382 bytes, 38 tensors)

conv1.weight f4 [16, 2, 8]
0.012800353 0.021815669 0.11833112 0.06263449 0.22702505 0.04827415 -0.04680818 0.045675468
-0.07614302 -0.13911682 -0.09552481 0.118369035 0.15740186 -0.17559384 -0.057952423 0.00041368714
0.16678691 -0.15613002 -0.20793544 -0.048997223 0.08934542 -0.19871116 0.092612766 0.091413304
-0.08161546 0.19245483 0.25155398 0.1057757 0.19067828 -0.072957166 0.049579453 -0.1083647
-0.13077275 -0.02325579 0.122610204 0.07091634 0.0447955 0.062438574 0.12798421 -0.048636835
-0.07674421 -0.1931826 0.056653757 -0.109092675 0.022513585 -0.02899948 0.18447198 -0.033369124
-0.018873086 -0.16421536 -0.17127773 -0.026118333 0.02328343 0.088168755 0.17267665 -0.08769114
-0.06705181 0.17859001 -0.031379934 -0.13601176 0.18853763 0.21246174 0.02984734 -0.0056637623
0.098365955 0.106129356 0.10987168 0.010391177 0.016699852 -0.13466321 0.10491537 -0.0886113
-0.09945969 -0.04743239 0.1129265 0.037961043 0.15937386 -0.004926861 0.06727477 0.1946577
0.15904558 -0.03264955 -0.15481591 -0.25801757 -0.03302426 -0.09932172 0.14392065 -0.09106648
0.02090811 -0.005882771 0.0037352722 0.13863659 -0.07200954 -0.31174716 -0.08621108 -0.07745546
0.031231422 -0.033741504 0.038636442 -0.17261712 0.043207865 -0.12820257 -0.09640267 -0.05549245
0.08121202 -0.10241289 0.14479674 -0.20976633 0.11690868 -0.124546304 -0.15540917 -0.05774087
-0.13618799 0.10490895 0.16393225 0.13910517 -0.07398324 -0.056274693 0.15586375 0.09844257
0.05815222 -0.08114271 0.00479386 0.16243714 0.035635352 -0.004628362 0.14578131 0.15599397
0.08423871 -0.09273776 0.01547388 0.15711237 -0.08343776 0.090608016 0.084970705 0.023673138
0.1698585 0.053650767 0.1674425 0.25778416 0.0031489122 0.11427671 0.07675667 0.13418561
-0.02688324 0.26449308 -0.15949772 0.036151696 0.2612724 0.11309276 -0.022407351 -0.035371967
-0.21503837 -0.012692508 0.07267895 -0.1361563 -0.0742742 0.12654476 0.11124146 0.013977769
-0.03458499 -0.016714083 0.11187135 0.019704688 -0.059231974 -0.02928932 -0.034019098 -0.0052058776
0.16279142 -0.07856917 -0.07584302 0.025353663 0.18351631 -0.025583694 -0.16156285 0.14171052
0.055418104 0.051673792 0.011107608 0.2346097 -0.017816586 -0.13154197 -0.15704282 -0.12938993
-0.18206124 -0.08356897 0.022689987 -0.02639589 -0.14951172 0.17191158 -0.17987996 -0.004769791
0.30175802 0.00016485226 -0.006044517 0.07657364 -0.018331757 -0.033029944 0.05206904 -0.08893258
0.040868625 -0.20447342 -0.05956866 -0.21240872 -0.053118322 -0.07923773 0.034621384 -0.15442805
-0.11103911 -0.13252142 0.043364465 -0.18974401 -0.17507204 -0.02081908 0.110931866 -0.01743982
0.06333837 0.17702202 0.017917914 0.11631804 0.01488331 0.041560438 -0.14499192 -0.012664633
-0.06677928 0.049013216 0.19910806 0.3061292 -0.028355913 -0.018576263 -0.005670768 0.20400882
0.09930195 0.10171646 0.0028288497 0.13348684 -0.061369784 0.018187884 -0.34243008 0.15805969
-0.023723751 0.054645043 -0.045002148 -0.07967357 0.020955972 0.014057064 -0.028596925 -0.089098714
0.042218626 -0.24121165 0.070848554 0.00766527 -0.023160454 -0.005726775 0.07492015 0.01019179
00000000: 92b8 513c c6b6 b23c 9657 f23d 8346 803d
00000010: 4179 683e 1dbb 453d efb9 3fbd 3316 3b3d
00000020: dff0 9bbd a474 0ebe 83a2 c3bd 776b f23d
00000030: f42d 213e dfce 33be 855f 6dbd 26e4 d839
00000040: 30ca 2a3e 8ce0 1fbe 07ed 54be 50b1 48bd
00000050: bbfa b63d f07a 4bbe c3ab bd3d e636 bb3d
00000060: 0226 a7bd e112 453e afcb 803e eea0 d83d
00000070: 2b41 433e 916a 95bd d313 4b3d 50ee ddbd
00000080: 4be9 05be ed82 bebc 0f1b fb3d 963c 913d
00000090: 7c7b 373d 97bf 7f3d 4b0e 033e 6b37 47bd
000000a0: 122c 9dbd a9d1 45be c50d 683d fb6b dfbd
000000b0: 696e b83c 5190 edbc 39e6 3c3e 10ae 08bd
000000c0: bb9b 9abc 1228 28be 6e63 2fbe 1df6 d5bc
000000d0: e4bc be3c d291 b43d 26d2 303e 6a97 b3bd
000000e0: 7652 89bd 4de0 363e 3f88 00bd ab46 0bbe
000000f0: 0210 413e 928f 593e 6982 f43c 1597 b9bb
00000100: 1774 c93d 595a d93d 6704 e13d c13f 2a3c
00000110: 21ce 883c 27e5 09be dfdd d63d d779 b5bd
00000120: 86b1 cbbd 7748 42bd 0246 e73d 0a7d 1b3d
00000130: e732 233e 8171 a1bb 5bc7 893d 5954 473e
00000140: d8dc 223e 89bb 05bd 1088 1ebe e11a 84be
00000150: 7244 07bd 3069 cbbd ef5f 133e 1081 babd
00000160: 7c47 ab3c 43c4 c0bb 78cb 743b c0f6 0d3e
00000170: bd79 93bd 539d 9fbe 6f8f b0bd f8a0 9ebd
00000180: 0ad9 ff3c 8834 0abd 3f41 1e3d 8bc2 30be
00000190: bbfa 303d 8947 03be c36e c5bd 0d4c 63bd
000001a0: 7d52 a63d d9bd d1bd 9945 143e fccc 56be
000001b0: d16d ef3d 2212 ffbd 9523 1fbe b181 6cbd
000001c0: dd74 0bbe 81da d63d dbdd 273e 9671 0e3e
000001d0: 8684 97bd 4b80 66bd bf9a 1f3e 429c c93d
000001e0: 0631 6e3d 262e a6bd d015 9d3b ec55 263e
000001f0: 60f6 113d 84a9 97bb b247 153e e2bc 1f3e
00000200: 5885 ac3d 4bed bdbd 2886 7d3c 11e2 203e
00000210: 6be1 aabd b290 b93d 1f05 ae3d 2bee c13c
00000220: 63ef 2d3e e8c0 5b3d 0c76 2b3e 49fc 833e
00000230: fb5d 4e3b e809 ea3d 9a32 9d3d f467 093e
00000240: 3e3a dcbc a36b 873e 5f53 23be cd13 143d
00000250: 7fc5 853e 2d9d e73d 9f8f b7bc 32e2 10bd
00000260: 0533 5cbe 3df4 4fbc b4d8 943d 8f6c 0bbe
00000270: 121d 98bd f394 013e 90d2 e33d 0303 653c
00000280: fea8 0dbd f9eb 88bc ce1c e53d ba6b a13c
00000290: 3a9d 72bd 28f0 efbc 9c57 0bbd 1196 aabb
000002a0: cbb2 263e dfe8 a0bd 9653 9bbd 7cb2 cf3c
000002b0: b3eb 3b3e e594 d1bc bb70 25be 901c 113e
000002c0: 18fe 623d e6a7 533d affc 353c 863d 703e
000002d0: 17f4 91bc f0b2 06be d5cf 20be cb7e 04be
000002e0: 436e 3abe 3526 abbd 5ae0 b93c 323c d8bc
000002f0: 9a19 19be 9709 303e 7432 38be e84b 9cbb
00000300: 0780 9a3e 31dc 2c39 1511 c6bb a4d2 9c3d
00000310: 7b2c 96bc 684a 07bd 5846 553d 4922 b6bd
00000320: dc65 273d 7b61 51be 44fe 73bd ac81 59be
00000330: 9992 59bd 6447 a2bd 27cf 0d3d 6322 1ebe
00000340: 7968 e3bd b2b3 07be f09e 313d 414c 42be
00000350: 1646 33be c68c aabc 3f30 e33d f4dd 8ebc
00000360: 8cb7 813d 4345 353e 97c8 923c 2738 ee3d
00000370: 20d9 733c 473b 2a3d c378 14be 527f 4fbc
00000380: 93c3 88bd 15c2 483d fce2 4b3e f7bc 9c3e
00000390: a94a e8bc 3f2d 98bc dad1 b9bb b0e7 503e
000003a0: d25e cb3d b850 d03d 3964 393b c6b0 083e
000003b0: e25e 7bbd c2fe 943c ff52 afbe 66da 213e
000003c0: 5058 c2bc 7bd3 5f3d 2c54 38bd e62b a3bd
000003d0: dcab ab3c 9a4f 663c 1944 eabc 6379 b6bd
000003e0: 70ed 2c3d 3000 77be 0c19 913d f22c fb3b
000003f0: feba bdbc aca7 bbbb bc6f 993d 77fb 263c

conv1.bias f4 [16]
0.05157086 -0.12717178 0.07113851 -0.08178029 0.16101636 -0.17196837 0.23497263 -0.13883373
0.14617158 0.03274232 -0.17592067 -0.23486596 0.21706718 -0.08472318 -0.15313578 0.24955341
00000000: f73b 533d 5239 02be 11b1 913d 6d7c a7bd
00000010: 79e1 243e 7a18 30be aa9c 703e 6e2a 0ebe
00000020: 01ae 153e d01c 063d 8c24 34be b480 70be
00000030: dc46 5e3e 5983 adbd a0cf 1cbe ee8a 7f3e

conv1_norm.weight f4 [16]
0.054111622 0.5351491 0.120752305 0.71874726 0.37238914 0.15029213 0.40383503 0.38309363
0.3201805 0.57200414 0.3698044 0.15139055 0.45309278 0.7160664 0.7022285 0.09555664
00000000: 26a4 5d3d 88ff 083f fc4c f73d d2ff 373f
00000010: caa9 be3e 2ee6 193e 77c3 ce3e d924 c43e
00000020: b3ee a33e dd6e 123f 0157 bd3e 2006 1b3e
00000030: c7fb e73e 2150 373f 3fc5 333f 33b3 c33d

conv1_norm.bias f4 [16]
0.15972216 0.016984211 -0.00090169034 0.013932423 -0.0025768226 0.0075299866 -0.0074801063 -0.03735493
-0.021867385 0.026740108 0.030437125 0.01986711 -0.004799511 -0.047895897 -0.025217898 0.010032249
00000000: 358e 233e 7922 8b3c 6a5f 6cba d144 643c
00000010: e9df 28bb 1bbe f63b ae1b f5bb 7c01 19bd
00000020: 3b23 b3bc 120e db3c 4757 f93c 59c0 a23c
00000030: 3745 9dbb 7d2e 44bd c495 cebc 4d5e 243c

conv1_norm.running_mean f4 [16]
0.051575888 -0.12717013 0.07114192 -0.081782915 0.1610209 -0.17198358 0.23496683 -0.13882503
0.14618081 0.032748424 -0.17592123 -0.2348684 0.21706674 -0.08472282 -0.15312035 0.24955148
00000000: 3d41 533d e338 02be dbb2 913d cd7d a7bd
00000010: aae2 243e 771c 30be 259b 703e 2628 0ebe
00000020: 6cb0 153e 3623 063d b224 34be 5881 70be
00000030: be46 5e3e 2883 adbd 95cb 1cbe 6c8a 7f3e

conv1_norm.running_var f4 [16]
0.00012355298 0.00018569457 7.715103e-05 0.00010896169 0.00012067519 0.00015514923 0.00010104118 0.0001587995
0.00030446635 0.00013792866 3.9355033e-05 0.000110336776 0.00019852743 0.00015497963 0.00019291876 2.8293598e-05
00000000: 008e 0139 02b7 4239 25cc a138 5d82 e438
00000010: 0013 fd38 8eaf 2239 12e6 d338 6b83 2639
00000020: c8a0 9f39 f1a0 1039 2511 2538 9b64 e738
00000030: cd2b 5039 0782 2239 3c4a 4a39 0a58 ed37

conv2.weight f4 [24, 16, 8]
-0.07215349 0.011439365 -0.09191352 0.096119605 -0.15627356 -0.16708843 0.09581951 0.11938004
-0.11924917 0.10220415 -0.06465728 -0.039600752 0.06389386 -0.08987317 -0.049989864 0.12919314
-0.02377573 0.056615777 0.029062573 0.12128384 -0.17249833 0.013656955 -0.1469595 0.025325261
-0.09212207 0.08639628 -0.00070939906 0.015312246 -0.041890513 0.09999747 -0.0001716826 -0.10931829
0.12926818 -0.027045237 0.066221826 -0.022518303 0.029517237 -0.081726775 0.02457715 0.01485884
-0.040871143 0.025903735 -0.07092686 -0.14197028 -0.07977196 -0.11890534 0.12013342 -0.0851709
-0.00043869868 -0.02580695 -0.014648077 0.05856963 0.17127149 -0.012717878 -0.042606924 0.07553475
0.14267586 0.008922127 -0.04112153 -0.055602662 0.028035067 0.057122376 0.043026157 0.005925373
-0.020792186 0.013532198 0.06462537 0.08265502 -0.01565441 -0.052468617 0.0057554157 -0.048700538
0.032708894 0.03438633 -0.032338556 -0.10332955 -0.011719586 0.07516369 -0.06409758 0.041568898
-0.06850266 0.015834687 0.025646528 -0.17033125 0.00823327 0.080762446 -0.05079427 -0.14855458
0.08472073 -0.10643101 0.20615906 -0.02907693 -0.026032593 -0.06546109 -0.06354844 0.037498903
-0.010344721 -0.05415746 0.09331484 -0.083496 -0.13048354 0.06021987 0.00608269 -0.10546876
-0.015876986 -0.014878329 0.09662767 -0.0635737 0.02920134 -0.08058899 -0.05603893 0.14034782
0.14247207 -0.095128685 0.019215394 0.050822474 0.08494889 -0.09820816 -0.08201712 0.049020488
0.018910747 -0.055125702 0.16435768 -0.035386503 -0.11233074 -0.041906755 0.10063881 0.0041235317
-0.006771529 0.0072547826 -0.010563632 0.11578635 0.01103912 0.12321721 0.0041992054 0.09076507
0.07873079 0.09729735 -0.051986594 -0.03962019 0.05626164 0.08791143 0.0980865 0.10862629
-0.04729847 -0.11705998 -0.07283574 -0.0012013576 -0.16929749 -0.07492086 0.09092206 0.07213712
-0.0029847187 0.047458563 -0.04571725 0.087585986 -0.006590431 -0.095753826 -0.04058097 0.009400473
0.0417234 -0.009166818 0.04572756 -0.11694163 -0.07914586 0.072312325 0.010026527 -0.06453706
-0.0246741 0.06866229 0.0028646865 -0.0097224405 -0.0012871211 -0.07854258 0.03245408 -0.017992733
0.060705032 0.12501493 -0.13737835 0.03863029 0.03897822 0.024323786 0.085231796 -0.06528713
-0.052117087 0.058790818 -0.014272683 -0.024504855 -0.06394235 -0.025767663 -0.038146574 -0.039334994
0.0031307742 0.048381004 -0.035542674 0.10881157 -0.08941727 0.21903375 -0.0430237 0.020880723
-0.045698017 0.059128135 -0.05285156 0.09198791 0.1352478 0.038490284 -0.0015098999 -0.04255485
0.14072609 -0.084551655 0.036602624 -0.12366799 -0.036852103 0.01300321 -0.08491967 0.13394774
0.03634556 0.054873426 -0.12759413 -0.036137946 0.04577266 0.016780253 -0.019572055 -0.024706982
-0.076090604 -0.21138848 0.0010947647 0.0208073 -0.066843346 -0.043865684 0.04043233 -0.08032477
0.028965821 -0.011004152 -0.030543026 -0.07592995 0.12559612 0.034567494 -0.013862483 -0.057648733
0.10602729 0.07863229 -0.024880318 0.0018019694 -0.18009506 0.059450824 -0.073224895 -0.10142039
0.00023815007 -0.11055084 -0.02258517 0.043590106 -0.18064123 -0.068560705 -0.08167919 0.011516234
00000000: 35c5 93bd 2d6c 3b3c 283d bcbd 5bda c43d
00000010: 2d06 20be 3b19 2bbe 053d c43d 867d f43d
00000020: e938 f4bd 6950 d13d 096b 84bd 6634 22bd
00000030: c9da 823d 6d0f b8bd 2cc2 4cbd 354b 043e
00000040: 52c5 c2bc f2e5 673d a214 ee3c a963 f83d
00000050: 67a3 30be 6cc1 5f3c 8d7c 16be ec76 cf3c
00000060: 7faa bcbd 88f0 b03d f7f6 39ba 37e0 7a3c
00000070: 6395 2bbd 79cb cc3d b205 34b9 45e2 dfbd
00000080: e15e 043e f98d ddbc 4f9f 873d 4e78 b8bc
00000090: 22ce f13c 5e60 a7bd 0556 c93c 7e72 733c
000000a0: 8068 27bd 1234 d43c 1a42 91bd a860 11be
000000b0: 7b5f a3bd a584 f3bd 8308 f63d 156e aebd
000000c0: 2401 e6b9 1969 d3bc 7dfe 6fbc b5e6 6f3d
000000d0: cb61 2f3e a65e 50bc 9984 2ebd f7b1 9a3d
000000e0: 9f19 123e 1d2e 123c 0d6f 28bd 9ebf 63bd
000000f0: cca9 e53c 27f9 693d 323c 303d a229 c23b
00000100: 6054 aabc 27b6 5d3c 4e5a 843d 0947 a93d
00000110: ad3d 80bc 55e9 56bd ed97 bc3b 377a 47bd
00000120: c3f9 053d aed8 0c3d 6f75 04bd 719e d3bd
00000130: 8203 40bc 6cef 993d 9845 83bd 2644 2a3d
00000140: 1f4b 8cbd bfb7 813c ab18 d23c 516b 2ebe
00000150: d6e4 063c c866 a53d a70d 50bd b11e 18be
00000160: 1082 ad3d 80f8 d9bd 5c1b 533e be32 eebc
00000170: 4e42 d5bc 7710 86bd af25 82bd 7398 193d
00000180: e87c 29bc 36d4 5dbd da1b bf3d f3ff aabd
00000190: 7a9d 05be 1ca9 763d 4d51 c73b 0100 d8bd
000001a0: 7410 82bc 3cc4 73bc bae4 c53d ee32 82bd
000001b0: a637 ef3c d70b a5bd 1489 65bd 57b7 0f3e
000001c0: 33e4 113e d4d2 c2bd 9a69 9d3c 3a2b 503d
000001d0: aff9 ad3d 5c21 c9bd 98f8 a7bd b5c9 483d
000001e0: b6ea 9a3c 7dcb 61bd 614d 283e 70f1 10bd
000001f0: a90d e6bd 6ba6 2bbd b81b ce3d b11e 873b
00000200: b4e3 ddbb 87b9 ed3b 1513 2dbc 6521 ed3d
00000210: 6ddd 343c 4e59 fc3d 7d99 893b 09e3 b93d
00000220: 9c3d a13d d543 c73d e5ef 54bd c848 22bd
00000230: 9b72 663d e80a b43d 93e1 c83d 7677 de3d
00000240: 0abc 41bd 25bd efbd e82a 95bd df76 9dba
00000250: 525c 2dbe 1c70 99bd 5835 ba3d a0bc 933d
00000260: 459b 43bb e963 423d 0342 3bbd 4860 b33d
00000270: 8bf4 d7bb 951a c4bd 3b38 26bd 7104 1a3c
00000280: 28e6 2a3d 6c30 16bc d24c 3b3d 187f efbd
00000290: 3a17 a2bd 7c18 943d 4d46 243c 022c 84bd
000002a0: 5721 cabc d19e 8c3d 77bd 3b3b df4a 1fbc
000002b0: 9eb4 a8ba efda a0bd 92ee 043d 7f65 93bc
000002c0: d7a5 783d ea03 003e e9ac 0cbe cc3a 1e3d
000002d0: a0a7 1f3d ad42 c73c 028e ae3d 42b5 85bd
000002e0: ba78 55bd a4ce 703d f9d7 69bc 68be c8bc
000002f0: 35f4 82bd b516 d3bc 953f 1cbd bb1d 21bd
00000300: ad2d 4d3b 292b 463d 3295 11bd 9ad8 de3d
00000310: 6720 b7bd 624a 603e 9f39 30bd 0d0e ab3c
00000320: d82d 3bbd 5830 723d e17a 58bd 2864 bc3d
00000330: 667e 0a3e fda7 1d3d d5e7 c5ba ff4d 2ebd
00000340: 801a 103e 6b29 adbd a2ec 153d a545 fdbd
00000350: 3bf2 16bd 6a0b 553c 5dea adbd 9929 093e
00000360: 15df 143d f5c2 603d 09a8 02be 6205 14bd
00000370: 1d7c 3b3d be76 893c 9355 a0bc 4c66 cabc
00000380: 64d5 9bbd 3976 58be 357e 8f3a 1274 aa3c
00000390: 2ae5 88bd 81ac 33bd 5f9c 253d 5081 a4bd
000003a0: bb49 ed3c c24a 34bc 5e35 fabc 2981 9bbd
000003b0: 459c 003e a596 0d3d 781f 63bc 1421 6cbd
000003c0: d624 d93d f709 a13d cfd1 cbbc 0f30 ec3a
000003d0: d76a 38be b582 733d eff6 95bd 7eb5 cfbd
000003e0: ecb7 7939 7b68 e2bd 8904 b9bc 8a8b 323d
000003f0: 04fa 38be 8e69 8cbd 6b47 a7bd 96ae 3c3c

conv2.bias f4 [24]
-0.05372585 -0.01427803 0.056236435 0.006465838 0.043484032 0.079193644 0.0004680483 0.014329007
-0.047457416 -0.08022993 0.039666906 -0.068129025 -0.01850038 0.016439943 0.071280934 0.06589966
-0.0136457095 0.0378537 -0.007335671 0.02205805 -0.06254193 -0.05995839 -0.054058272 0.07780393
00000000: a30f 5cbd 66ee 69bc 2d58 663d 61df d33b
00000010: 501c 323d 4730 a23d 6164 f539 36c4 6a3c
00000020: b562 42bd 974f a4bd c479 223d 3b87 8bbd
00000030: 1c8e 97bc 0fad 863c bdfb 913d 67f6 863d
00000040: 4192 5fbc 7b0c 1b3d 1260 f0bb 15b3 b43c
00000050: fc15 80bd ee96 75bd 356c 5dbd ab57 9f3d

conv2_norm.weight f4 [24]
0.18132883 0.18021247 0.68753296 0.29939032 0.16700031 0.17121997 0.75431794 0.088506505
0.50498533 0.20162746 0.6920968 0.41836417 0.19819596 0.6929231 0.7996067 0.6979161
0.802526 0.9521999 0.9048698 0.8929153 0.7367979 0.9164715 0.3227464 0.7176216
00000000: 44ae 393e 9e89 383e 2902 303f b049 993e
00000010: 2102 2b3e 4a54 2f3e fb1a 413f e642 b53d
00000020: b846 013f 6e77 4e3e 422d 313f d433 d63e
00000030: e2f3 4a3e 6963 313f 06b3 4c3f a1aa 323f
00000040: 5872 4d3f 5fc3 733f 8ca5 673f 1996 643f
00000050: ca9e 3c3f e09d 6a3f 043f a53e 0db6 373f

conv2_norm.bias f4 [24]
0.036728177 0.012853618 0.03415801 0.03653158 0.061775822 -0.0064142025 -0.05490931 -0.021574797
0.0042738146 -0.01191242 -0.046011582 -0.019981803 0.04333433 -0.039554242 -0.051692262 -0.012304596
-0.059374645 -0.0004043473 0.06010583 -0.04673243 0.035442002 -0.05740728 0.0039360453 -0.021718845
00000000: 4970 163d fb97 523c 45e9 0b3d 23a2 153d
00000010: a508 7d3d 3b2e d2bb 96e8 60bd a1bd b0bc
00000020: 5b0b 8c3b 502c 43bc a476 3cbd e1b0 a3bc
00000030: 577f 313d a103 22bd 44bb 53bd 3799 49bc
00000040: d432 73bd 93fe d3b9 8831 763d 816a 3fbd
00000050: a22b 113d e523 6bbd f1f9 803b b8eb b1bc

conv2_norm.running_mean f4 [24]
-0.11938006 0.03795133 0.124303184 0.00031799506 0.02194893 0.097310826 -0.05867253 0.08700903
-0.38968006 -0.10265369 -0.032035764 -0.39744043 -0.002239505 0.031674523 0.02866822 0.4102276
-0.61000335 -0.53503025 -0.30590144 -0.082858 0.035590526 -0.11257769 -0.09018895 -0.01110623
00000000: 887d f4bd db72 1b3d ab92 fe3d 93b8 a639
00000010: 3ece b33c e64a c73d 9b52 70bd ca31 b23d
00000020: 2584 c7be 193c d2bd ef37 03bd 507d cbbe
00000030: a9c4 12bb 25bd 013d 9dd9 ea3c 5a09 d23e
00000040: 2e29 1cbf bef7 08bf 1d9f 9cbe 75b1 a9bd
00000050: 5fc7 113d 228f e6bd fcb4 b8bd e8f6 35bc

conv2_norm.running_var f4 [24]
0.033403352 0.029734693 0.05839607 0.033145677 0.02706524 0.07738529 0.07579789 0.16717535
0.043874923 0.050627794 0.047565367 0.04363737 0.025430273 0.025665447 0.11661976 0.068775125
0.05451704 0.08790118 0.047760684 0.034756124 0.022880675 0.060649477 0.07489435 0.041332275
00000000: f4d1 083d 2c96 f33c b830 6f3d c3c3 073d
00000010: ecb7 dd3c 2e7c 9e3d ed3b 9b3d 0430 2b3e
00000020: 31b6 333d 175f 4f3d e7d3 423d 19bd 323d
00000030: 2653 d03c 5840 d23c 57d6 ee3d f9d9 8c3d
00000040: 424d 5f3d 8905 b43d b5a0 433d 705c 0e3d
00000050: 4170 bb3c 966b 783d 3562 993d 084c 293d

conv3.weight f4 [36, 24, 8]
-0.021896707 -0.062612906 -0.20614102 -0.12747835 -0.117513105 0.015831329 0.055588245 -0.16054997
-0.1040804 -0.11855398 -0.027000513 -0.057925455 0.017603826 -0.0066120755 0.076938726 -0.18564813
0.0064851474 0.09432718 0.0005746102 0.057350975 -0.026129616 -0.006799032 -0.072892554 0.038897276
0.035892807 -0.03078563 -0.11412384 0.035594948 -0.0007525213 0.10551667 0.043942023 -0.050929874
0.13678518 -0.116561085 0.0035891866 0.018198047 0.060876038 0.08415904 -0.050234698 0.056672253
-0.06109756 -0.052769177 0.06450598 0.03325693 -0.06421554 -0.04674721 0.06449695 0.013928079
0.045023292 0.0055381265 -0.009919358 0.059686728 0.12088944 -0.022854555 0.0101723615 0.055531092
-0.08893709 0.06993386 0.044409882 0.061048742 0.027016731 0.024777964 0.010441938 0.05969872
0.03543366 -0.025554318 0.022243338 0.047121253 0.021737952 0.09266943 0.04247618 0.0651381
-0.009217372 -0.0699592 -0.019977797 -0.17779502 0.04816865 0.1870473 -0.16725425 0.04385206
0.0033074587 0.08091402 0.0463006 -0.019460114 -0.011963904 0.056352086 -0.053446103 0.055568602
-0.054590594 0.077758305 0.0004959724 -0.031590227 -0.03143731 -0.038324654 -0.05890522 -0.07089901
-0.040028542 0.08262828 0.01946168 0.055006932 0.09310681 -0.031613484 0.016971942 -0.061284777
0.06799234 0.04028821 0.040769346 -0.027370159 0.027824052 0.098029695 -0.023644114 -0.040568862
-0.0012891248 -0.06950724 0.09925558 -0.17676196 0.020338487 -0.078295775 0.09144085 -0.016715234
0.014293009 0.0074012885 0.066497594 0.10412293 -0.019631686 0.09167943 0.04707987 -0.055644423
-0.031687543 -0.0870619 0.13032211 -0.0074359584 0.014951144 0.0953292 -0.03970841 0.014269036
0.057683013 0.06870688 0.033590585 -0.012738102 -0.1417231 0.06542918 0.024925873 -0.011255928
-0.027704807 0.07990566 0.1135124 -0.10699788 -0.035798118 0.1242288 -0.07049621 -0.03849584
-0.023035893 -0.06997352 0.0312841 0.025545834 0.08448465 -0.018557591 -0.07514036 0.029814335
0.0152997915 0.16908033 0.049896747 -0.0771861 0.02632438 -0.044741172 0.038297642 0.026562728
-0.07030935 0.013999733 -0.006280732 0.049787536 0.0062286677 -0.031460922 -0.101928346 -0.010588773
0.010715808 -0.02953862 -0.039803512 -0.07331523 -0.13813174 -0.008143131 0.04904578 0.0032393457
-0.05483892 0.10222193 -0.016201936 -0.04909132 -0.023011357 -0.05140944 0.04674638 -0.020860333
0.015955828 0.07333821 0.04927781 0.034478374 0.04544139 0.15258174 0.08685408 0.0764787
-0.009289561 0.009443134 0.008899998 -0.04734736 0.10902671 0.10145315 -0.017957399 -0.058321983
-0.0022803938 0.005998428 -0.019868206 -0.03088319 0.03791631 0.087148055 0.05516467 -0.05608517
-0.033783972 0.088793665 -0.031431206 0.049385134 0.0039549223 -0.017222317 -0.009216202 0.073561266
-0.16000202 -0.081392586 0.019309858 0.0010204993 -0.040799413 -0.054521304 0.15936342 0.0756564
0.016851932 0.030213289 -0.09447921 0.031883407 0.026953498 0.08157278 0.087754495 0.10030724
0.034660496 0.07035683 0.109726556 -0.033304237 0.028050125 0.027508572 -0.08963363 -0.038131684
0.1994325 0.057964783 0.09160979 0.0033846078 -0.018220501 0.011614997 -0.1178833 0.08641668
00000000: b960 b3bc 323b 80bd a216 53be af89 02be
00000010: b6aa f0bd b4b0 813c 80b0 633d 3667 24be
00000020: 1b28 d5bd 6ecc f2bd 2e30 ddbc 3e43 6dbd
00000030: e635 903c 1caa d8bb 0d92 9d3d 8b1a 3ebe
00000040: 5c81 d43b 9c2e c13d 70a1 163a dbe8 6a3d
00000050: c70d d6bc 6aca debb b148 95bd c052 1f3d
00000060: 5604 133d 2532 fcbc c3b9 e9bd 02cc 113d
00000070: d944 45ba 2019 d83d 8dfc 333d d89b 50bd
00000080: 6a11 0c3e 94b7 eebd 8f38 6b3b 1214 953c
00000090: 2759 793d 935b ac3d e6c2 4dbd 2a21 683d
000000a0: 6f41 7abd 7e24 58bd b61b 843d 6b38 083d
000000b0: 7083 83bd 017a 3fbd fa16 843d 9932 643c
000000c0: 586a 383d 2c79 b53b ce84 22bc 127a 743d
000000d0: e294 f73d 7a39 bbbc faa9 263c 9274 633d
000000e0: a624 b6bd 7c39 8f3d 23e7 353d 3f0e 7a3d
000000f0: 3152 dd3c 28fb ca3c aa14 2b3c a586 743d
00000100: e322 113d 4a57 d1bc a937 b63c 3702 413d
00000110: ca13 b23c 78c9 bd3d 81fb 2d3d 2067 853d
00000120: 7604 17bc c546 8fbd 7aa8 a3bc e60f 36be
00000130: 7e4c 453d 5489 3f3e b344 2bbe 389e 333d
00000140: f3c1 583b 40b6 a53d b3a5 3d3d d16a 9fbc
00000150: 4004 44bc 72d1 663d 4dea 5abd e79b 633d
00000160: 639a 5fbd bf3f 9f3d 2504 023a c164 01bd
00000170: 69c4 00bd 50fa 1cbd 9a46 71bd 8033 91bd
00000180: f8f4 23bd 0439 a93d 1a6e 9f3c f34e 613d
00000190: c8ae be3d 247d 01bd be08 8b3c bf05 7bbd
000001a0: 913f 8b3d 4005 253d c2fd 263d 6237 e0bc
000001b0: 44ef e33c cbc3 c83d 4db1 c1bc 892b 26bd
000001c0: daf7 a8ba d059 8ebd 8246 cb3d 1601 35be
000001d0: e69c a63c 8959 a0bd 5745 bb3d 63ee 88bc
000001e0: 3a2d 6a3c 8286 f23b e42f 883d 673e d53d
000001f0: a1d2 a0bc 6dc2 bb3d d2d6 403d 68eb 63bd
00000200: ccca 01bd 824d b2bd 2973 053e 57a9 f3bb
00000210: a5f5 743c f53b c33d 49a5 22bd adc8 693c
00000220: 0645 6c3d 31b6 8c3d 4896 093d 79b3 50bc
00000230: dc1f 11be bcff 853d 5831 cc3c c96a 38bc
00000240: 31f5 e2bc 94a5 a33d 3079 e83d b421 dbbd
00000250: 0ca1 12bd ab6b fe3d 5160 90bd d0ad 1dbd
00000260: c5b5 bcbc 474e 8fbd c223 003d 7f45 d13c
00000270: 4a06 ad3d 1706 98bc 30e3 99bd 313d f43c
00000280: faab 7a3c 6523 2d3e 8860 4c3d bf13 9ebd
00000290: 3aa6 d73c 8542 37bd fddd 1c3d 149a d93c
000002a0: 59fe 8fbd 235f 653c 99ce cdbb 04ee 4b3d
000002b0: da19 cc3b 2bdd 00bd cfbf d0bd 887c 2dbc
000002c0: 5b91 2f3c fafa f1bc 0209 23bd 4c26 96bd
000002d0: 6872 0dbe c46a 05bc 3ae4 483d 344b 543b
000002e0: c69e 60bd bb59 d13d ecb9 84bc fb13 49bd
000002f0: 5082 bcbc b492 52bd 2279 3f3d 4ae3 aabc
00000300: ccb5 823c 5832 963d 87d7 493d 3239 0d3d
00000310: c020 3a3d 633e 1c3e 8de0 b13d dda0 9c3d
00000320: 3e33 18bc 60b7 1a3c 4cd1 113c 4eef 41bd
00000330: 6549 df3d abc6 cf3d 651b 93bc 08e3 6ebd
00000340: a972 15bb 768e c43b a6c2 a2bc befe fcbc
00000350: 224e 1b3d ae7a b23d 59f4 613d 90b9 65bd
00000360: 1061 0abd 74d9 b53d 02be 00bd 1148 4a3d
00000370: 4b98 813b d115 8dbc 8eff 16bc 4aa7 963d
00000380: 92d7 23be 28b1 a6bd b52f 9e3c 46c2 853a
00000390: 491d 27bd bb51 5fbd 2a30 233e bef1 9a3d
000003a0: 100d 8a3c dc81 f73c 517e c1bd 2d98 023d
000003b0: 95cd dc3c a10f a73d a1b8 b33d e26d cd3d
000003c0: 2af8 0d3d 3e17 903d 51b8 e03d 066a 08bd
000003d0: 60c9 e53c a859 e13c d691 b7bd f82f 1cbd
000003e0: 0938 4c3e 7b6c 6d3d ea9d bb3d 4cd0 5d3b
000003f0: 2943 95bc d44c 3e3c cd6c f1bd 3afb b03d

conv3.bias f4 [36]
0.010241401 0.06464573 0.07178747 -0.06780286 0.04104364 0.047443807 -0.019044932 -0.017799685
0.03426451 -0.0058199177 0.06650696 -0.017595196 -0.06855717 0.02521818 -0.04798579 0.013229116
-0.027877081 -0.04947335 0.044314295 -0.028829603 -0.053697266 0.0019605134 0.07203011 -0.06638907
0.067988575 -0.0028214701 -0.0031800976 0.048289876 -0.043240387 -0.051767487 0.0055484492 0.0294709
-0.023592504 0.066238634 0.034747817 -0.060960695
00000000: 8dcb 273c fb64 843d 4f05 933d 3adc 8abd
00000010: 601d 283d 7054 423d 1e04 9cbc a5d0 91bc
00000020: f158 0c3d 02b5 bebb cd34 883d cd23 90bc
00000030: b467 8cbd 5b96 ce3c bf8c 44bd efbe 583c
00000040: 7a5e e4bc 91a4 4abd e882 353d 0f2c ecbc
00000050: aaf1 5bbd f57b 003b 8684 933d fef6 87bd
00000060: 983d 8b3d 6ae8 38bb 2f69 50bb 9bcb 453d
00000070: d51c 31bd 250a 54bd c4cf b53b f56c f13c
00000080: 1145 c1bc 1fa8 873d ba53 0e3d ecb1 79bd

conv3_norm.weight f4 [36]
0.40925872 0.35396972 0.73154557 0.26943222 0.35433576 0.39260095 0.85330486 0.30065617
0.22470823 0.96019006 0.45832 0.45107603 0.93555653 0.5028044 0.22843277 0.25208732
0.1817497 0.74081326 0.9572217 0.38164982 0.6305734 0.6380037 0.9703107 0.3749058
0.64715403 0.9155825 0.8357832 0.7992675 0.5204081 0.7255298 0.7318187 0.23989365
0.5248333 0.2425447 0.95275944 0.56464165
00000000: 5c8a d13e 853b b53e 9246 3b3f 05f3 893e
00000010: 7f6b b53e fe02 c93e 3072 5a3f 9bef 993e
00000020: ea19 663e 04cf 753f eba8 ea3e 70f3 e63e
00000030: a280 6f3f cab7 003f 48ea 693e 9711 813e
00000040: 981c 3a3e f0a5 3d3f 7b0c 753f 9b67 c33e
00000050: 426d 213f 3654 233f 4866 783f a7f3 bf3e
00000060: e3ab 253f 9d63 6a3f e3f5 553f cb9c 4c3f
00000070: 7739 053f 52bc 393f 7858 3b3f aea6 753e
00000080: 7a5b 063f a35d 783e 0be8 733f 5b8c 103f

conv3_norm.bias f4 [36]
0.007023453 -0.03266798 -0.038919415 0.036964215 -0.029239653 -0.0518646 -0.008305661 0.027293475
-0.023054905 -0.030293837 -0.013043287 -0.03181821 -0.0038255278 -0.04244817 0.003665146 -0.008000641
0.022182629 -0.069323786 -0.019879403 -0.0017767177 -0.018607438 -0.025890099 -0.028824924 0.004041903
-0.024531372 -0.030621167 -0.023010075 -0.027860126 -0.0300496 -0.027065957 -0.07946576 0.028299551
-0.022059865 -0.0004440861 0.01108927 -0.034844678
00000000: fe24 e63b dcce 05bd f769 1fbd ca67 173d
00000010: ff87 efbc fa6f 54bd 7814 08bc 9196 df3c
00000020: a4dd bcbc c82a f8bc 83b3 55bc d053 02bd
00000030: b5b5 7abb 22de 2dbd f232 703b 1f15 03bc
00000040: 58b8 b53c a1f9 8dbd 21da a2bc c1e0 e8ba
00000050: a06e 98bc 7917 d4bc 3f22 ecbc f171 843b
00000060: 04f6 c8bc 3ed9 fabc a07f bcbc eb3a e4bc
00000070: 942a f6bc 6db9 ddbc f2be a2bd 76d4 e73c
00000080: e4b6 b4bc 3ad4 e8b9 c5af 353c 4bb9 0ebd

conv3_norm.running_mean f4 [36]
0.2807877 0.80303854 -0.40167454 -0.23666115 -0.32126486 0.36574018 0.10011704 -0.23056598
0.34976405 0.20534115 0.1606417 0.69648415 -0.31139877 0.050345115 0.16237752 0.057008218
0.015348128 -0.21225595 -0.514154 0.18595621 -0.06565923 -0.037832435 -0.09239847 0.22489142
0.20629452 0.2703211 0.054119553 0.07541489 1.1903905 -0.3295597 0.028422657 0.6628419
0.61715835 0.52793133 0.045859434 -0.07536238
00000000: 68c3 8f3e ef93 4d3f 49a8 cdbe 4d57 72be
00000010: d47c a4be 4c42 bb3e 2a0a cd3d 7d19 6cbe
00000020: 4614 b33e f344 523e 427f 243e c94c 323f
00000030: a96f 9fbe ae36 4e3d 4b46 263e 7381 693d
00000040: b776 7b3c a059 59be 999f 03bf 4e6b 3e3e
00000050: 5978 86bd 2ff6 1abd 693b bdbd f049 663e
00000060: df3e 533e 8767 8a3e 77ac 5d3d 1f73 9a3d
00000070: b75e 983f 0dbc a8be a2d6 e83c 02b0 293f
00000080: 17fe 1d3f 8226 073f 1ad7 3b3d 9757 9abd

conv3_norm.running_var f4 [36]
0.08390062 0.09663791 0.12761517 0.117410675 0.09840246 0.14031956 0.13507181 0.3227875
0.10719124 0.24078327 0.15924509 0.16009854 0.09261899 0.07832975 0.09874425 0.06829933
0.10400704 0.08581423 0.30050415 0.08699483 0.15244757 0.0636598 0.1539127 0.075623095
0.12916835 0.09832605 0.16154692 0.12388057 0.21776848 0.17543949 0.2075525 0.11435568
0.09824962 0.08408882 0.213931 0.20418794
00000000: 17d4 ab3d 19ea c53d 8dad 023e 0275 f03d
00000010: 3b87 c93d eeaf 0f3e 4450 0a3e 6744 a53e
00000020: 1587 db3d e48f 763e 2511 233e dff0 233e
00000030: 06af bd3d 596b a03d 6d3a ca3d 85e0 8b3d
00000040: a501 d53d 5fbf af3d aedb 993e 582a b23d
00000050: 371b 1c3e 1260 823d 4a9b 1d3e 48e0 9a3d
00000060: b544 043e 2b5f c93d 8e6c 253e 19b5 fd3d
00000070: b3fe 5e3e 69a6 333e a488 543e 5033 ea3d
00000080: 1937 c93d c236 ac3d ba10 5b3e a516 513e

conv4.weight f4 [48, 36, 8]
-0.08025279 0.012113452 -0.027989147 -0.019170899 0.0105376365 0.02244162 -0.022667997 -0.0428329
0.025501555 0.036356155 -0.08679333 -0.020190574 0.015239796 0.104030885 0.057127908 -0.0092946645
-0.030032402 0.026508866 -0.047818273 -0.029249176 0.040520057 -0.029951671 -0.027196238 0.022259662
0.043192394 -0.04548245 -0.13097727 0.12418243 0.010083438 -0.0391334 -0.0061913393 -0.034281548
-0.06360535 -0.03934327 0.006023895 -0.062325194 -0.009586393 -0.024501128 -0.099550135 -0.039011117
-0.05078526 0.046079434 -0.10476068 -0.040691637 -0.051511142 -0.0144061195 -0.041408446 -0.017084014
-0.0026665302 -0.0074727633 0.069553725 0.007871671 -0.13934776 -0.07516178 -0.017904663 -0.07663324
0.07895217 -0.023932785 0.054031964 0.053962618 -0.042345665 0.011701302 0.029007167 0.0035499642
0.06186209 -0.008632813 0.03273728 0.036792245 0.00047304056 -0.015299009 -0.021676298 0.013309546
-0.061222732 0.031525657 -0.022484716 -0.06108888 0.011557871 -0.042216748 0.001649126 -0.02543835
0.011567163 -0.05536222 0.053576 -0.04859102 -0.007500354 -0.01805214 -0.01783933 -4.7911213e-05
-0.12987237 -0.07012997 -0.00888879 -0.015017529 0.07807148 -0.06871806 0.063967146 -0.07479131
-0.019238843 -0.014414047 -0.018071374 -0.06450725 -0.026798194 -0.012754524 0.020586554 -0.0027552831
-0.12037158 0.0073869615 -0.061429426 0.031202719 -0.06428778 -0.046662178 0.10317735 0.027652841
-0.08397107 -0.027763546 0.007176098 -0.025257709 -0.067183495 -0.002879357 -0.07057131 0.02234598
0.07741539 -0.023239007 0.060194347 -0.033151753 -0.03526705 0.01315842 0.030745674 -0.0652393
-0.108307764 0.0038848673 -0.07582233 -0.053468153 0.04185398 0.01881967 0.07563683 0.050316397
0.034541488 -0.08652588 0.1394954 -0.0038855139 0.053342834 0.052536707 0.07504128 -0.067375414
-0.045101754 -0.06669969 -0.02006407 -0.026293583 -0.05745478 0.07878049 0.010811129 -0.033217322
0.038697638 -0.047707677 0.09127149 -0.012323976 -0.013201223 -0.043509144 0.015130635 -0.0031275547
-0.049759362 -0.0011999685 -0.02138886 -0.07619716 -0.090738945 0.04408843 -0.0015731395 0.012348192
0.0009823471 -0.06069673 0.0030483988 0.07714718 0.10065209 0.027488632 0.15300435 0.01320041
-0.034270715 0.02474312 0.018871827 0.057847176 0.051442202 -0.003120797 -0.01473304 0.08352581
-0.022362638 0.054659724 0.078589894 0.020809444 0.03506642 0.06748878 -0.10079093 0.10286488
0.09368792 0.0128463125 0.11378292 -0.02306987 -0.035877988 0.07863353 -0.05476532 -0.034309343
0.14184207 -0.020239277 0.0052833115 0.06015539 -0.04728066 -0.042263888 0.061950296 -0.013596331
0.021618042 -0.059145935 0.018558824 -0.0754954 0.052687284 0.04360309 -0.03437976 -0.023899663
0.018897194 -0.01627075 -0.07131523 -0.028628694 -0.021324325 0.0070009837 -0.0048846947 0.0024195658
0.053287137 0.10761726 0.034105852 0.013648865 0.011726358 0.008792213 -0.02405407 0.1067215
-0.042356383 0.045321845 -0.10377943 -0.049583852 0.019025603 0.0097028 -0.04239258 0.053595264
-0.037191022 0.1338807 0.11850574 -0.040257994 -0.01509064 0.046579063 0.054952364 -0.0016760149
0.020744747 -0.084575 -0.038413096 0.026155494 -0.027601028 0.11496098 -0.06637328 -0.015840368
00000000: 935b a4bd 8077 463c 7f49 e5bc 4a0c 9dbc
00000010: 0da6 2c3c 7dd7 b73c 3cb2 b9bc 8d71 2fbd
00000020: a3e8 d03c 31ea 143d b4c0 b1bd b466 a5bc
00000030: 56b0 793c 250e d53d f4fe 693d a648 18bc
00000040: 8306 f6bc 1f29 d93c 18dd 43bd f89b efbc
00000050: 5cf8 253d 355d f5bc a5ca debc e559 b63c
00000060: 82ea 303d ce4b 3abd e81e 06be 5c53 fe3d
00000070: 0135 253c 584a 20bd b8e0 cabb cf6a 0cbd
00000080: 8643 82bd 6926 21bd 1864 c53b b448 7fbd
00000090: 3f10 1dbc 97b6 c8bc f1e0 cbbd 1fca 1fbd
000000a0: 3404 50bd cabd 3c3d c48c d6bd 46ac 26bd
000000b0: 59fd 52bd a507 6cbc e79b 29bd c6f3 8bbc
000000c0: f4c0 2ebb 15de f4bb 2f72 8e3d 2ef8 003c
000000d0: 2eb1 0ebe 6bee 99bd cdac 92bc e3f1 9cbd
000000e0: adb1 a13d b00e c4bc 9f50 5d3d e807 5d3d
000000f0: a672 2dbd d1b6 3f3c 70a0 ed3c 84a6 683b
00000100: 1a63 7d3d a470 0dbc 8717 063d 77b3 163d
00000110: 6e02 f839 b2a8 7abc 7e92 b1bc 4810 5a3c
00000120: b0c4 7abd 0c21 013d de31 b8bc 5538 7abd
00000130: 395d 3d3c 78eb 2cbd 7c27 d83a 1664 d0bc
00000140: 3384 3d3c 7fc3 62bd 8272 5b3d 6107 47bd
00000150: 88c5 f5bb 15e2 93bc c923 92bc 46f4 48b8
00000160: 43fd 04be 4da0 8fbd 4aa2 11bc 150c 76bc
00000170: f1e3 9f3d 0ebc 8cbd 3501 833d 302c 99bd
00000180: c79a 9dbc e528 6cbc 6b0a 94bc 611c 84bd
00000190: e387 dbbc 5af8 50bc 22a5 a83c fb91 34bb
000001a0: 6085 f6bd 530e f23b 6c9d 7bbd d89c ff3c
000001b0: 50a9 83bd d720 3fbd a54e d33d 3688 e23c
000001c0: 06f9 abbd 6070 e3bc 7925 eb3b 41e9 cebc
000001d0: 8097 89bd 98b3 3cbb b187 90bd eb0e b73c
000001e0: f68b 9e3d bb5f bebc 598e 763d 22ca 07bd
000001f0: 2f74 10bd 6a96 573c 5ade fb3c 2f9c 85bd
00000200: 76d0 ddbd 4299 7e3b bd48 9bbd 6c01 5bbd
00000210: 146f 2b3d b52b 9a3c 7be7 9a3d 9118 4e3d
00000220: 607b 0d3d 7b34 b1bd e2d7 0e3e 1ba4 7ebb
00000230: 047e 5a3d bb30 573d 3eaf 993d 1ffc 89bd
00000240: 9ebc 38bd d999 88bd 685d a4bc a465 d7bc
00000250: b455 6bbd aa57 a13d 2921 313c e30e 08bd
00000260: 6a81 1e3d 2069 43bd 8cec ba3d 80ea 49bc
00000270: f149 58bc a536 32bd 7ce6 773c a9f7 4cbb
00000280: 79d0 4bbd 4348 9dba b137 afbc 420d 9cbd
00000290: 57d5 b9bd 1296 343d cd31 ceba 1250 4a3c
000002a0: 19c2 803a 229d 78bd a5c7 473b 57ff 9d3d
000002b0: af22 ce3d d72f e13c 2cad 1c3e 8846 583c
000002c0: 735f 0cbd 15b2 ca3c 1799 9a3c 29f1 6c3d
000002d0: 0fb5 523d 4986 4cbb d962 71bc 940f ab3d
000002e0: da31 b7bc e0e2 5f3d bdf3 a03d 9178 aa3c
000002f0: cea1 0f3d 8f37 8a3d 7a6b cebd d2aa d23d
00000300: 74df bf3d 5779 523c 0507 e93d 06fd bcbc
00000310: ccf4 12bd 9e0a a13d 9a51 60bd f487 0cbd
00000320: 0c3f 113e d7cc a5bc a11f ad3b 8065 763d
00000330: 5ea9 41bd e61c 2dbd 98bf 7d3d 25c3 5ebc
00000340: 5218 b13c 0243 72bd ad08 983c 559d 9abd
00000350: 9fce 573d 2799 323d cbd1 0cbd 3ac9 c3bc
00000360: 4ace 9a3c 3c4a 85bc b80d 92bd b986 eabc
00000370: 5ab0 aebc 8268 e53b ca0f a0bb 9491 1e3b
00000380: 9d43 5a3d 7066 dc3d 94b2 0b3d 7d9f 5f3c
00000390: e91f 403c 370d 103c 0a0d c5bc cd90 da3d
000003a0: e37d 2dbd 66a3 393d 4f8a d4bd 7018 4bbd
000003b0: 95db 9b3c 7ef8 1e3c d8a3 2dbd b586 5b3d
000003c0: 9d55 18bd 0618 093e 23b3 f23d 91e5 24bd
000003d0: bb3e 77bc b0c9 3e3d bb15 613d baad dbba
000003e0: e3f0 a93c a835 adbd 0d57 1dbd 0c44 d63c
000003f0: 8d1b e2bc aa70 eb3d b7ee 87bd a9c3 81bc

conv4.bias f4 [48]
-0.019988563 -0.014948534 -0.004820255 -0.015063156 0.023415135 -0.052122638 0.05916889 -0.008518449
-0.0051896665 -0.008592131 0.036171068 0.022589942 0.042679057 -0.04745865 -0.025148757 -0.018817673
0.025386788 0.04943529 -0.012184446 0.018240323 0.0059171366 -0.0097318 0.025635362 0.008163922
0.03364242 0.028890472 -0.004027229 0.050471127 -0.029156981 0.029826807 0.050337788 -0.03673525
0.016314851 -0.042813364 -0.047019042 0.04492956 0.05447476 0.005327962 0.05156439 0.027606718
-0.005475213 0.059870426 -0.004814812 0.054185417 -0.027257973 0.058126897 -0.051862534 0.009052717
00000000: 0ebf a3bc b2ea 74bc 3bf3 9dbb 75cb 76bc
00000010: 19d1 bf3c 8c7e 55bd 145b 723d f790 0bbc
00000020: 140e aabb 02c6 0cbc 1d28 143d 8b0e b93c
00000030: 3cd0 2e3d 0064 42bd c404 cebc 8527 9abc
00000040: f4f7 cf3c a97c 4a3d 45a1 47bc bb6c 953c
00000050: 8ae4 c13b 2172 1fbc 4001 d23c f8c1 053c
00000060: a2cc 093d b6ab ec3c d8f6 83bb d0ba 4e3d
00000070: 9fda eebc 5957 f43c ff2e 4e3d b477 16bd
00000080: b9a6 853c 115d 2fbd 0a97 40bd 0f08 383d
00000090: ed20 5f3d 2f96 ae3b 2f35 533d 7c27 e23c
000000a0: 6a69 b3bb b13a 753d 92c5 9dbb 87f1 5d3d
000000b0: 1d4c dfbc 7816 6e3d cf6d 54bd d951 143c

conv4_norm.weight f4 [48]
0.27667844 0.096000515 0.660629 0.8822938 0.19618812 0.32181537 0.87351334 0.38312063
0.101340264 0.52753586 0.48733285 0.26102108 0.9505352 0.29716262 0.52436316 0.97056353
0.6428367 0.08005368 0.8522448 0.81460536 0.87325805 0.44359437 0.16276921 0.16996856
0.60093117 0.8454267 0.5635506 0.92939216 0.38608497 0.63022935 0.8354396 0.60138667
0.20366721 0.53636295 0.22424464 0.92449516 0.39512593 0.80710274 0.92965716 0.24104558
0.92714787 0.37616405 0.4593903 0.8597461 0.16420771 0.79403937 0.8273248 0.26605374
00000000: cca8 8d3e eb9b c43d fb1e 293f 02de 613f
00000010: 8ae5 483e fcc4 a43e 929e 5f3f 6328 c43e
00000020: 7c8b cf3d 970c 073f b183 f93e 8ea4 853e
00000030: 4656 733f b325 983e aa3c 063f da76 783f
00000040: f290 243f 2ff3 a33d b72c 5a3f fa89 503f
00000050: d78d 5f3f cd1e e33e f9ac 263e 3d0c 2e3e
00000060: a0d6 193f e26d 583f da44 103f a5ec 6d3f
00000070: eeac c53e b656 213f 5fdf 553f 7af4 193f
00000080: 238e 503e 154f 093f 63a0 653e b7ab 6c3f
00000090: f24d ca3e 499e 4e3f 03fe 6d3f a7d4 763e
000000a0: 9059 6d3f 9398 c03e 3535 eb3e 5218 5c3f
000000b0: 1126 283e 2a46 4b3f 8fcb 533f 3238 883e

conv4_norm.bias f4 [48]
0.002161139 -0.00442726 -0.012363422 -0.031048873 -0.015937228 -0.015245812 -0.02327619 0.011435145
0.00627437 -0.026149614 0.011832066 0.011188746 -0.010004181 0.003078097 -0.004294529 0.024947459
-0.015442131 0.015753074 0.0019344777 -0.030822407 -0.005783312 0.0023890177 0.018669182 0.029900992
0.023978423 -0.026996586 0.015054472 0.01623294 0.022270074 0.010817117 -0.005511598 -0.01125505
0.0242133 0.014879523 -0.010505299 -0.021160003 -0.0050993897 -0.012947651 -0.0045987945 0.017510807
-0.024301395 -0.034441445 -0.0045271697 -9.32592e-05 0.021949071 -0.00017179846 -0.013267663 0.045256764
00000000: e5a1 0d3b 8c12 91bb f38f 4abc 355a febc
00000010: ca8e 82bc 92c9 79bc b5ad bebc 795a 3b3c
00000020: 3b99 cd3b b737 d6bc 48db 413c 0151 373c
00000030: 94e8 23bc e6b9 493b 1fb9 8cbb 9d5e cc3c
00000040: fe00 7dbc 970c 813c 4d8e fd3a 467f fcbc
00000050: f081 bdbb 1191 1c3b 1df0 983c edf2 f43c
00000060: 666e c43c f227 ddbc 08a7 763c f1fa 843c
00000070: bb6f b63c 473a 313c a39a b4bb 1a67 38bc
00000080: f85a c63c 3ec9 733c 6b1e 2cbc be57 adbc
00000090: c818 a7bb 6222 54bc 7cb1 96bb d372 8f3c
000000a0: b813 c7bc 7912 0dbd a758 94bb 2794 c3b8
000000b0: 8ace b33c cc24 34b9 9d60 59bc 285f 393d

conv4_norm.running_mean f4 [48]
-0.16746229 0.5251775 -0.19533771 -0.18447198 0.52568024 -0.14477162 -0.15541428 1.170461
0.36744627 0.3373899 -0.19734627 -0.47824812 -0.37620494 0.11746701 0.33343595 -0.37272608
0.40547177 0.38278916 -0.20825677 0.6707538 -0.41919175 -0.45007876 0.18775803 0.016137948
0.28329915 0.12847356 -0.51503104 0.39265764 0.1429827 0.052827403 0.3404691 -0.18526714
-0.019094128 -0.84336776 0.49817932 0.87615675 0.32552344 -0.08273973 -0.6673685 0.07561093
-0.082855836 0.23442821 0.078365 -0.29952815 -0.105459735 0.54411924 -0.21812594 0.03276164
00000000: 3c7b 2bbe 0872 063f 9c06 48be 39e6 3cbe
00000010: fb92 063f 033f 14be ec24 1fbe abd1 953f
00000020: eb21 bc3e 5ebe ac3e 2415 4abe f0dc f4be
00000030: ef9d c0be 8b92 f03d 1eb8 aa3e f4d5 bebe
00000040: ff99 cf3e f1fc c33e 4341 55be 85b6 2b3f
00000050: 4da0 d6be b970 e6be a443 403e bb33 843c
00000060: 960c 913e 938e 033e 13d9 03bf 6c0a c93e
00000070: 0f6a 123e 8c61 583d f751 ae3e abb6 3dbe
00000080: 4a6b 9cbc f3e6 57bf 5c11 ff3e cf4b 603f
00000090: 02ab a63e 7373 a9bd a9d8 2abf e7d9 9a3d
000000a0: 52b0 a9bd f30d 703e d47d a03d c15b 99be
000000b0: 46fb d7bd 664b 0b3f 685c 5fbe 1231 063d

conv4_norm.running_var f4 [48]
0.10382047 0.12663075 0.096660495 0.43169075 0.116333045 0.08586811 0.12557611 0.26465327
0.12593418 0.11229444 0.14324507 0.13801311 0.25313234 0.097736694 0.12310347 0.2401368
0.109204166 0.15643144 0.14497724 0.39699146 0.19415624 0.28415036 0.11073623 0.12264007
0.17340513 0.106931955 0.16872886 0.093692735 0.1274031 0.17659031 0.2588156 0.17958705
0.09006169 0.15925202 0.120573305 0.36361825 0.081636496 0.27687702 0.40145037 0.1329243
0.19459064 0.23093194 0.1401941 0.42565498 0.0981761 0.13255933 0.23089798 0.09536667
00000000: d49f d43d 7eab 013e f0f5 c53d 9206 dd3e
00000010: 0540 ee3d 9fdb af3d 0697 003e a280 873e
00000020: e4f4 003e a1fa e53d d6ae 123e 4f53 0d3e
00000030: 909a 813e 2d2a c83d ac1d fc3d 6ce6 753e
00000040: 6fa6 df3d 902f 203e ea74 143e 7742 cb3e
00000050: e5d0 463e 287c 913e adc9 e23d b82a fb3d
00000060: 1d91 313e 24ff da3d 42c7 2c3e fae1 bf3d
00000070: f575 023e 17d4 343e 7a83 843e abe5 373e
00000080: 4372 b83d f612 233e 23ef f63d 2c2c ba3e
00000090: 0931 a73d d3c2 8d3e e78a cd3e 4f1d 083e
000000a0: c542 473e 6c79 6c3e 0b8f 0f3e 73ef d93e
000000b0: 8d10 c93d a2bd 073e 8570 6c3e 9a4f c33d

conv5.weight f4 [64, 48, 8]
-0.090734154 0.07405183 0.07433851 -0.025382832 -0.02353333 -0.0013920802 0.035694245 0.05103928
-0.015421123 -0.026395082 -0.028932037 0.055452786 0.022469204 -0.01563954 0.008553728 -0.0017912457
-0.022449719 -0.024359623 -0.05341253 0.040027812 -0.033217367 0.0016338385 0.020090904 -0.046225555
0.04878028 -0.038101997 -0.0066096843 0.048856106 0.005327855 0.048436746 0.014349322 -0.032546178
0.02618307 -0.023590634 -0.05324932 0.034402825 0.018585514 -0.06613824 0.069332704 0.07588787
0.034007367 0.04821594 0.026562307 -0.009782539 -0.0024117415 0.007937079 0.011756834 -0.03163801
0.045651194 -0.008251857 0.045377873 0.12515181 0.03490465 -0.025317589 0.043515068 -0.01920948
-0.0870887 -0.055840805 -0.0066551454 0.0031824352 0.02471235 0.018758617 0.079053104 0.055223163
-0.054578394 -0.093146935 0.0271595 -0.016360555 0.046692874 0.04895406 -0.01901922 0.069492504
0.1068856 0.022259792 -0.017995263 0.06680789 0.02620275 0.04441716 0.10847859 -0.02160066
-0.0726759 -0.00070973457 -0.032508314 0.089455485 0.022099927 -0.05824511 -0.06867628 -0.0674298
-0.0139797125 0.02237934 0.053161204 -0.037591107 -0.0031267765 -0.0072001545 0.05996387 0.012528266
0.011360517 -0.029673686 0.00882529 0.04432981 -0.047461286 0.002874148 0.0124336155 -0.041200664
-0.07077345 -0.04942308 -0.094680876 -0.050197307 -0.0035054653 -0.009687972 -0.010622594 0.04003822
0.015141047 0.040386576 0.0062001753 -0.019450711 -0.01851357 -0.007394469 0.07554016 -0.0013694532
-0.0073599136 0.004929335 -0.057681542 -0.024401704 0.07023358 -0.03767603 0.037856683 -0.065272644
-0.016566703 -0.042459276 0.02140251 -0.024329888 -0.009334376 0.05244101 0.040723484 0.007961697
0.03165182 -0.120082475 0.026501196 0.003807613 0.04673646 -0.026659185 -0.009437712 0.054001898
0.022819217 -0.05646941 0.0010317984 0.011421325 -0.0572627 -0.008147535 -0.038035206 0.019893317
-0.023060821 -0.043559287 -0.07247972 -0.018266207 0.08239649 -0.046638932 0.045661103 0.12694293
-0.007684062 -0.010830294 -0.02972582 -0.044831287 -0.026862869 -0.08995672 -0.0019034401 -0.01313288
-0.01700701 0.033560243 0.0546446 0.049507402 0.11515579 0.118284374 0.055875313 -0.021319006
0.036912974 -0.023378702 0.08250653 -0.06655746 0.0032653557 0.022039173 0.1129276 0.07257113
0.00091876433 -0.09013726 0.042903576 0.056997232 -0.026125655 -0.058379427 -0.041204084 0.04932391
-0.0057624546 -0.031637937 -0.10133198 -0.031741258 0.0047698203 -0.0012007719 -0.03658018 0.055543605
-0.046138085 -0.016793204 -0.045299817 -0.06530799 -0.030834256 -0.06390358 -0.05706593 -0.12168257
-0.10920117 0.04272985 -0.074146785 -0.0025227696 -0.05456913 0.008623045 -0.026746381 0.10154334
-0.08306515 -0.04518638 0.027965652 0.031181846 -0.013208258 0.006737658 -0.05931685 -0.013484805
-0.06019732 0.04219745 0.06375194 -0.0016054315 0.006015087 -0.035972286 -0.061065383 -0.0546782
-0.01953697 -0.09151356 -0.040439196 -0.03948582 0.011114056 -0.000107789274 -0.089215584 -0.012759049
0.046434477 0.008061888 -0.015076729 -0.048246384 0.040548217 0.008476033 0.093102045 0.08275188
0.023396889 -0.0056234887 -0.024865925 -0.014579802 -0.045166742 0.040854037 -0.043024357 -0.015855724
00000000: d4d2 b9bd 7ca8 973d ca3e 983d a8ef cfbc
00000010: f8c8 c0bc 7676 b6ba 2134 123d 900e 513d
00000020: e1a8 7cbc 803a d8bc e102 edbc 7622 633d
00000030: 5611 b83c 7e1e 80bc f024 0c3c 3bc8 eaba
00000040: 79e8 b7bc d58d c7bc 19c7 5abd 34f4 233d
00000050: ef0e 08bd 8626 d63a ae95 a43c 0257 3dbd
00000060: d5cd 473d d710 1cbd 0d96 d8bb 571d 483d
00000070: 4995 ae3b 9c65 463d 6b19 6b3c 244f 05bd
00000080: e17d d63c 2541 c1bc f51b 5abd fae9 0c3d
00000090: a640 983c 7c73 87bd 4efe 8d3d 196b 9b3d
000000a0: 4f4b 0b3d 147e 453d 3299 d93c f146 20bc
000000b0: 4f0e 1ebb 860a 023c bc9f 403c dc96 01bd
000000c0: bffc 3a3d cc32 07bc 26de 393d cc27 003e
000000d0: 2ef8 0e3d d566 cfbc db3c 323d 335d 9dbc
000000e0: 8f5b b2bd 54b9 64bd 6813 dabb 6790 503b
000000f0: 8e71 ca3c acab 993c 98e6 a13d af31 623d
00000100: 988d 5fbd d2c3 bebd 9a7d de3c 9206 86bc
00000110: 0741 3f3d 0d84 483d 32ce 9bbc 1652 8e3d
00000120: d6e6 da3d 2b5a b63c cd6a 93bc 93d2 883d
00000130: 26a7 d63c c5ee 353d 062a de3d def3 b0bc
00000140: 1ad7 94bd 7b0d 3aba 7027 05bd 7034 b73d
00000150: e80a b53c 6d92 6ebd 26a6 8cbd a318 8abd
00000160: 2a0b 65bc e154 b73c 90bf 593d 22f9 19bd
00000170: 9bea 4cbb 46ef ebbb ad9c 753d 5b43 4d3c
00000180: 7621 3a3c 3b16 f3bc f397 103c 2d93 353d
00000190: c466 42bd 345c 3c3b 5db6 4b3c 07c2 28bd
000001a0: acf1 90bd db6f 4abd 0ce8 c1bd b19b 4dbd
000001b0: f3bb 65bb 4dba 1ebc 630a 2ebc 1eff 233d
000001c0: 2712 783c 656c 253d d72a cb3b 1957 9fbc
000001d0: c5a9 97bc 4d4d f2bb cdb4 9a3d 397f b3ba
000001e0: 6e2b f1bb 4286 a13b 7b43 6cbd 15e6 c7bc
000001f0: a0d6 8f3d 2e52 1abd 9c0f 1b3d aaad 85bd
00000200: e5b6 87bc c7e9 2dbd 5154 af3c 794f c7bc
00000210: 36ef 18bc 62cc 563d abcd 263d c771 023c
00000220: 57a5 013d cded f5bd 0919 d93c 2589 793b
00000230: bb6e 3f3d 5d64 dabc a2a0 1abc 1831 5d3d
00000240: 5eef ba3c 784c 67bd 693d 873a 8220 3b3c
00000250: 4b8c 6abd 3d7d 05bc ceca 1bbd 4ff7 a23c
00000260: 0cea bcbc 396b 32bd 3f70 94bd 03a3 95bc
00000270: 7ebf a83d 7708 3fbd 2307 3b3d 54fd 013e
00000280: 95ca fbbb 8c71 31bc 9083 f3bc 03a1 37bd
00000290: 850f dcbc 3b3b b8bd da7c f9ba 4b2b 57bc
000002a0: 4952 8bbc 7776 093d 04d3 5f3d 46c8 4a3d
000002b0: ccd6 eb3d 143f f23d 83dd 643d 32a5 aebc
000002c0: 0f32 173d b184 bfbc 2ff9 a83d 474f 88bd
000002d0: 94ff 553b 7f8b b43c 9646 e73d 2ca0 943d
000002e0: 3bd9 703a e299 b8bd a9bb 2f3d ee75 693d
000002f0: 7805 d6bc 441f 6fbd 9dc5 28bd de07 4a3d
00000300: f9d2 bcbb c896 01bd 2487 cfbd 1f03 02bd
00000310: 274c 9c3b 3863 9dba 19d5 15bd b181 633d
00000320: 4afb 3cbd e791 89bc 4d8c 39bd 32c0 85bd
00000330: 1f98 fcbc e1df 82bd f7bd 69bd b634 f9bd
00000340: dda4 dfbd 7f05 2f3d 45da 97bd 0d55 25bb
00000350: e183 5fbd ac47 0d3c 3a1b dbbc f4f5 cf3d
00000360: 101e aabd 5b15 39bd 3918 e53c 1271 ff3c
00000370: 7367 58bc 92c7 dc3b 3af6 72bd 5fef 5cbc
00000380: 7791 76bd 3cd7 2c3d 6190 823d 586d d2ba
00000390: 351a c53b ad57 13bd b21f 7abd 40f6 5fbd
000003a0: ff0b a0bc 766b bbbd 92a3 25bd e2bb 21bd
000003b0: bb17 363c ed0c e2b8 a9b6 b6bd 550b 51bc
000003c0: 1432 3e3d 0216 043c 6204 77bc 009e 45bd
000003d0: e315 263d 0fdf 0a3c 49ac be3d d179 a93d
000003e0: d5aa bf3c 3e45 b8bb a0b3 cbbc 1fe0 6ebc
000003f0: c300 39bd 9056 273d 4f3a 30bd dde3 81bc

conv5.bias f4 [64]
-0.045109734 -0.004783951 0.0345307 -0.017945549 -0.014092944 -0.040012833 0.027352314 -0.037942808
-0.0015145385 -0.048676435 -0.038318396 0.031627458 -0.037009556 -0.015845878 -0.009572421 -0.036950037
-0.02556691 -0.05045523 -0.01272536 -0.041082244 -0.050402854 0.011401269 0.012480233 -0.030449918
-0.036032084 -0.027937148 0.0047826464 -0.043802906 0.036408182 0.034119695 0.0025208364 0.049237166
0.013272879 0.035266556 0.012827107 0.036028735 -0.0011225153 -0.015882129 -0.029228875 0.004725869
0.016536217 -0.047760557 -0.048803072 -0.032148436 -0.045564063 -0.002326689 0.0059846416 0.029087732
0.029176753 0.0019228801 0.014789456 0.01425762 -0.045270585 -0.051353388 -0.027832584 0.02362484
-0.046381783 0.036414843 0.033358697 0.037811633 0.022419253 -0.025015356 -0.033680603 0.04553199
00000000: fcc4 38bd b1c2 9cbb 1070 0d3d 8b02 93bc
00000010: 17e6 66bc 7fe4 23bd f611 e03c eb69 1bbd
00000020: 7b83 c6ba f160 47bd c0f3 1cbd cb8b 013d
00000030: 5597 17bd 37cf 81bc a5d5 1cbc ec58 17bd
00000040: b271 d1bc 25aa 4ebd 077e 50bc db45 28bd
00000050: 3973 4ebd 63cc 3a3c e479 4c3c 1b72 f9bc
00000060: 6196 13bd 72dc e4bc bfb7 9c3b ad6a 33bd
00000070: bf20 153d 18c1 0b3d 9e34 253b e9ac 493d
00000080: 7d76 593c aa73 103d c928 523c de92 133d
00000090: 5d21 93ba 3d1b 82bc 6571 efbc 76db 9a3b
000000a0: f676 873c 93a0 43bd bbe5 47bd 14ae 03bd
000000b0: 62a1 3abd 5d7b 18bb d01a c43b 6549 ee3c
000000c0: 1604 ef3c 2609 fc3a 794f 723c cb98 693c
000000d0: a66d 39bd ee57 52bd 2901 e4bc e188 c13c
000000e0: d3fa 3dbd bb27 153d 21a3 083d 5fe0 1a3d
000000f0: 95a8 b73c 01ed ccbc acf4 09bd c07f 3a3d

conv5_norm.weight f4 [64]
0.3234728 0.4710776 0.82137305 0.4120675 0.8365954 0.44193107 0.60981786 0.16333666
0.80988234 0.48654887 0.32243568 0.35956472 0.93503237 0.1596043 0.64441544 0.2933009
0.15154515 0.45939088 0.37811035 0.8455104 0.12848581 0.10092388 0.48065522 0.73499084
0.78556997 0.824774 0.398064 0.23819128 0.93106157 0.29120684 0.898115 0.23167254
0.20006654 0.51160306 0.67270356 0.88028234 0.41588947 0.42405516 0.6126306 0.96751356
0.69257605 0.28396338 0.9525904 0.7841281 0.66938794 0.49862716 0.43016145 0.65708315
0.33454728 0.76995796 0.5642653 0.6556007 0.15180698 0.9306525 0.56693035 0.58399606
0.11476451 0.102372676 0.12608878 0.52294976 0.5754623 0.16736464 0.7327709 0.8143541
00000000: 3a9e a53e 1531 f13e 8145 523f 83fa d23e
00000010: 1e2b 563f ca44 e23e 061d 1c3f ba41 273e
00000020: 7354 4f3f ef1c f93e 4a16 a53e de18 b83e
00000030: 485e 6f3f 4f6f 233e 69f8 243f 892b 963e
00000040: a72e 1b3e 4835 eb3e ae97 c13e 5f73 583f
00000050: c991 033e 2eb1 ce3d 7118 f63e 5c28 3c3f
00000060: 1d1b 493f 6424 533f 0bcf cb3e 6ae8 733e
00000070: 0d5a 6e3f 1019 953e ddea 653f 913b 6d3e
00000080: 3ede 4c3e 6bf8 023f 4d36 2c3f 2f5a 613f
00000090: 77ef d43e c21d d93e 5cd5 1c3f f8ae 773f
000000a0: aa4c 313f a663 913e f7dc 733f 9fbc 483f
000000b0: 025d 2b3f 0f4c ff3e 1f3e dc3e 9a36 283f
000000c0: c849 ab3e f71b 453f b173 103f 73d5 273f
000000d0: 4a73 1b3e 3e3f 6e3f 5922 113f c480 153f
000000e0: a809 eb3d c4a8 d13d 6b1d 013e 09e0 053f
000000f0: 7f51 133f a361 2b3e e096 3b3f 8379 503f
